Paraneters: Namespace(axis=2, bs=8, cuda='0', dataset='../../ModelNet40_pointcloud_1024', epoch=100, interval=200, load=None, lr=0.0001, mode='train', neighbor_num=20, normal=True, random=False, record='0306_pointnet.txt', rotate=None, save='../../model_weight/cls/0306_pointnet.pkl', scale=None, shift=None, support_num=1)
Model parameter number: 1614129
Model structure:
PointNetCls(
  (feat): PointNetfeat(
    (stn): STN3d(
      (conv1): Conv1d(3, 64, kernel_size=(1,), stride=(1,))
      (conv2): Conv1d(64, 128, kernel_size=(1,), stride=(1,))
      (conv3): Conv1d(128, 1024, kernel_size=(1,), stride=(1,))
      (fc1): Linear(in_features=1024, out_features=512, bias=True)
      (fc2): Linear(in_features=512, out_features=256, bias=True)
      (fc3): Linear(in_features=256, out_features=9, bias=True)
      (relu): ReLU()
      (bn1): BatchNorm1d(64, eps=1e-05, momentum=0.1, affine=True, track_running_stats=True)
      (bn2): BatchNorm1d(128, eps=1e-05, momentum=0.1, affine=True, track_running_stats=True)
      (bn3): BatchNorm1d(1024, eps=1e-05, momentum=0.1, affine=True, track_running_stats=True)
      (bn4): BatchNorm1d(512, eps=1e-05, momentum=0.1, affine=True, track_running_stats=True)
      (bn5): BatchNorm1d(256, eps=1e-05, momentum=0.1, affine=True, track_running_stats=True)
    )
    (conv1): Conv1d(3, 64, kernel_size=(1,), stride=(1,))
    (conv2): Conv1d(64, 128, kernel_size=(1,), stride=(1,))
    (conv3): Conv1d(128, 1024, kernel_size=(1,), stride=(1,))
    (bn1): BatchNorm1d(64, eps=1e-05, momentum=0.1, affine=True, track_running_stats=True)
    (bn2): BatchNorm1d(128, eps=1e-05, momentum=0.1, affine=True, track_running_stats=True)
    (bn3): BatchNorm1d(1024, eps=1e-05, momentum=0.1, affine=True, track_running_stats=True)
  )
  (fc1): Linear(in_features=1024, out_features=512, bias=True)
  (fc2): Linear(in_features=512, out_features=256, bias=True)
  (fc3): Linear(in_features=256, out_features=40, bias=True)
  (dropout): Dropout(p=0.3, inplace=False)
  (bn1): BatchNorm1d(512, eps=1e-05, momentum=0.1, affine=True, track_running_stats=True)
  (bn2): BatchNorm1d(256, eps=1e-05, momentum=0.1, affine=True, track_running_stats=True)
  (relu): ReLU()
)
---------------- Training records ----------------
 epoch   1 step   200 | avg loss: 2.95202 | avg acc: 0.30688
 epoch   1 step   400 | avg loss: 2.72020 | avg acc: 0.35437
 epoch   1 step   600 | avg loss: 2.56280 | avg acc: 0.39000
 epoch   1 step   800 | avg loss: 2.46006 | avg acc: 0.41281
 epoch   1 step  1000 | avg loss: 2.36176 | avg acc: 0.43312
…
